model/connect4dl.pth (torch, 331234 bytes, 12 tensors)

fc1.weight f4 [256, 84]
00000000: be0d 65bc 1e67 4bbd 8238 67be b8ee 3d3d
00000010: 08b4 e0bd abeb 203e 918e 71be fc2c ddba
00000020: 84f0 a0bc 589c 03be 5ab2 1dbd b5a3 89be
00000030: ad07 8ebd a2ba e6bd ac7c 07be e846 6cbe
00000040: a7d0 e5bd 6928 a73b 6f0b 19bd 5b29 2fbe
00000050: 5efe f1ba 6443 453e afaf 383d 6fc5 5a3c
00000060: ccfb 3cbe 64f8 6cbd 5b77 583d 3949 febc
00000070: 5ce8 4cbd fcf9 7ebb f8cc c0bc 9d9d 243d
00000080: 1a27 a6bd 8ec0 f4bc b9ba d0bd 1479 e7bc
00000090: 0e05 3a3d 9063 cdbd 14d3 23be 4d17 f23c
000000a0: 7224 2dbd 0724 58bd 0cbc bf3c 4de1 24bd
000000b0: 7ec6 e7bb 122f 50be ded2 d6bc 3390 04be
000000c0: 9806 e0bc 9b77 8e3d 2cb0 47bc 40cb f2bc
000000d0: bed1 353e cace e7bd 9700 8ebb 5bb8 6f3d
000000e0: 9d1a 21bd 5e8a cbbb 62d7 a5bd fff0 13bd
000000f0: b44d 193d 8364 e93c b9f5 eb3d 5cb4 d63c
00000100: 562a 58be f099 8ebb 854b ccbe 9a4d 803d
00000110: 4a58 3d3d 584a 5ebd 34d9 28bb 87ad 293d
00000120: 7b4a 4f3e bede c7bc c484 0b3e a925 b23d
00000130: 7c06 883d 80fe 8d3d ee15 77be 6ee2 58be
00000140: e30c bbbd df54 d0be af61 3a3d e38b 8dbd
00000150: d835 eabd 1aa8 b2bd 3e56 b2bd 821e 1dbd
00000160: b2e5 abb9 7ae7 04be 0edb 223e 88b8 e3bd
00000170: e608 013e 7c89 c2bd 9f28 3bbd 70f2 ac3c
00000180: d13e 8b3d f6d3 09bd fcd4 d2bd f55f 0b3d
00000190: acd5 cbbd 1a66 eb3c 267c 53bd 5477 353e
000001a0: ff65 963c 7a20 a8bd 4aa8 293d 6b1b 89bd
000001b0: 3bba 8cbd d832 253d cbd6 f93a c405 b63d
000001c0: 31a2 cdbb 4e61 a4bd 5d83 d4bd 3547 35bd
000001d0: e654 40bd 47b3 2f3c cf9a d5bd 40fa 97bd
000001e0: 0bd2 6c3c 2e92 77bd da04 5cbd 3c29 c23d
000001f0: 4188 c3bd bdb9 12bc a586 a03d 8cbf da3c
00000200: f91d bbbd 35b7 863b 9d0f c9bd c36d a33b
00000210: 3ae3 d9bb f58e debd df73 57bc 1672 25be
00000220: 65a1 02bd f795 8fbd 7180 0dbd 0ef7 d03d
00000230: 61ab 8f3d 9d88 ef3c 7441 31bd ce9a 9fbd
00000240: 084e 8ebd e901 da3c 27fd e2bc 79de a03d
00000250: 20fc babd c383 09bd 56f9 53be f61c ebbd
00000260: 588b c0bd 45fd 82bd d76b 8c3c ad41 b0bd
00000270: a9e3 743d 5b11 a8bd fe76 f7bc 9fc7 88bd
00000280: 1e48 80bd 7fc4 5b3d 1915 a5bc 8234 60be
00000290: 300a a83d 8161 3fbe ed00 a6bc 9d2e df3d
000002a0: 0c96 94bd 7245 c0bd 72f4 a5bd 6c5c 13bd
000002b0: 8a99 e7bd 4103 02be 8857 9fbd 94d2 ffbd
000002c0: ec0e 3abe 008b 1dbd 9848 2b3d 3ce0 433c
000002d0: dae1 2d3d 6334 7f3e 9756 b5bd b0a3 d0bd
000002e0: 534e bfbc f5e4 e33c 36ad 7b3d 017a 84bd
000002f0: 28f2 313d 9fff de3c 8665 9fbd 16dc 093e
00000300: 261e 55bb b63c cb3d 88f3 5dbd de87 9abc
00000310: 1e15 c5bd 8997 debc 5837 11bb 2e2a f3bd
00000320: 49f2 22be 65e6 f63c 1966 373c 416a f5bc
00000330: d213 c2bb 17c2 073d 7d8a ebbc 4e76 0dbc
00000340: 4920 133d ad3e 313d 61bb 55bd 6404 73bb
00000350: 775b 293b 8258 063c f1bd 00bd afde 06be
00000360: 3d66 fbbd 0d7b 08be 268b 3cbc 61a1 3ebd
00000370: 6e9b 3abd f466 8ebd 6e67 273d 06fb ba3c
00000380: adab 13be ee43 b1bd b369 25be 9d48 a5bc
00000390: 2d99 99bd 1b28 a6bd ea55 b4bb 35aa 8abd
000003a0: 8c28 0c3e c427 1dbe 580d 883e cce5 b23c
000003b0: a0e3 8d3d e9e2 9dbd ec39 f0bd 7ec5 25be
000003c0: 1cbb 273d b517 e1bc f240 1a3e d15e 553c
000003d0: 2249 79bc 6504 1f3e 244e 3639 0e8b 733e
000003e0: aa0b 9e3e f663 9b3e 6907 b33d edb1 e4bc
000003f0: 063d d03e 43a3 803e 043e afbe 74c1 2a3d
-0.013980327 -0.049658887 -0.2258015 0.046370238 -0.10971838 0.157149 -0.23589541 -0.0016874368
-0.019645937 -0.12852609 -0.038500167 -0.2688271 -0.06935058 -0.11266066 -0.13231152 -0.23073924
-0.11221438 0.005101253 -0.03736442 -0.1710562 -0.0018462648 0.19263989 0.04508942 0.013352736
-0.18455428 -0.05785407 0.0528482 -0.031040775 -0.050026283 -0.0038906327 -0.023535237 0.040189374
-0.08112927 -0.029876973 -0.101918645 -0.028255977 0.045414977 -0.10028756 -0.15998489 0.029552126
-0.042271085 -0.052768733 0.023405097 -0.040253926 -0.0070732227 -0.20330456 -0.026223596 -0.12945633
-0.027346894 0.06956407 -0.012187999 -0.029637933 0.17755792 -0.11318739 -0.0043335664 0.058525424
-0.03933202 -0.006211563 -0.08097722 -0.036118504 0.03742762 0.02849031 0.11521477 0.026209049
-0.211099 -0.004351847 -0.39901367 0.06264801 0.046226777 -0.05427012 -0.0025764229 0.041425254
0.20243256 -0.024398204 0.13624865 0.08698589 0.06641862 0.06933308 -0.2412946 -0.21180126
-0.09133317 -0.40689752 0.045503315 -0.06911447 -0.11436051 -0.08723469 -0.08707856 -0.038359173
-0.00032786798 -0.12978926 0.15903875 -0.11119181 0.1260105 -0.09498879 -0.045693036 0.021111697
0.06799091 -0.033649407 -0.1029453 0.03402706 -0.09952864 0.02873521 -0.05163207 0.17721301
0.018359182 -0.082093194 0.04142026 -0.06694683 -0.06871458 0.04033169 0.0019061206 0.088878185
-0.0062754382 -0.08026372 -0.10376618 -0.04425736 -0.046955965 0.010723895 -0.10429918 -0.07420778
0.014454375 -0.060442142 -0.053715564 0.09480521 -0.09547473 -0.008955416 0.078381814 0.026702665
-0.09136576 0.0041111954 -0.09817431 0.00498745 -0.006649402 -0.10867111 -0.013150184 -0.16156802
-0.0318922 -0.070110254 -0.03454632 0.10203372 0.0701511 0.029239947 -0.04327531 -0.077931985
-0.06948477 0.026612239 -0.027708603 0.07854933 -0.0913012 -0.033572923 -0.20700583 -0.11480133
-0.09401578 -0.063959636 0.017141266 -0.08606277 0.059787426 -0.08206435 -0.030208107 -0.066787
-0.06263755 0.05365419 -0.020151662 -0.2189503 0.08205068 -0.18689539 -0.020264113 0.10897563
-0.07255182 -0.09388246 -0.08103265 -0.035976812 -0.11308582 -0.12696554 -0.07780367 -0.124913365
-0.18169755 -0.03846264 0.041817278 0.011955317 0.042451717 0.24922328 -0.08854406 -0.10187471
-0.023352778 0.027819136 0.061444484 -0.06468583 0.04344383 0.027221499 -0.07783036 0.13462862
-0.003251919 0.09923689 -0.054187328 -0.018863615 -0.096231684 -0.027171867 -0.0022158232 -0.118732795
-0.15912737 0.030139158 0.011193776 -0.029957892 -0.005922773 0.033144083 -0.02875256 -0.008634163
0.03591946 0.043272663 -0.05218065 -0.0037081474 0.002584187 0.008199813 -0.031431142 -0.13170885
-0.1227536 -0.1332819 -0.011507785 -0.04654062 -0.045558386 -0.069532305 0.040870123 0.022824775
-0.14420958 -0.08655535 -0.16153602 -0.020176226 -0.07499919 -0.08113118 -0.005503406 -0.06770746
0.13687342 -0.153472 0.2657268 0.021838091 0.06928182 -0.07709295 -0.11729798 -0.16188619
0.040949926 -0.027477125 0.15063837 0.013023094 -0.01521519 0.1552902 0.00017385982 0.23783514
0.30868274 0.30349702 0.08741648 -0.027916873 0.40671557 0.2512456 -0.34227002 0.041688398

fc1.bias f4 [256]
00000000: 781c 1bbe 6c44 dfbc df0e f4bd 746d a43e
00000010: cc92 33bd 1028 00bd e88e 19be d554 e43e
00000020: 5e41 923d 79a5 a7bd a815 80bd 4523 bcbd
00000030: b8ce 1abd f55a 01bd 7299 5ebd 3a97 48be
00000040: 89fd 01be cd7f a9bd 36eb b2be b1dd 85bd
00000050: 3a9e dbbc 034b debd c151 163f a258 9dbd
00000060: 07e1 0e3e 8aa3 cbbd f05c afbd a576 243e
00000070: 5b57 c5bd a9a4 0abe 6538 9cbd 1853 cfbd
00000080: 241e abbc e7a8 f7bd 478a 12be d160 b6be
00000090: bf45 34bd 21b6 93bd c96a 15bd f906 383e
000000a0: f0ff 83bc 3051 a5bd e1ee c0be 5787 bc3d
000000b0: 2e7b 9a3e b1fc abbd 88bc acbd 01e5 d0bd
000000c0: 3512 4abe c081 df3e b96b e3bd 0eda 14be
000000d0: 11e9 15bd 1bd3 a6bd ecd1 eabd e34c 00bc
000000e0: 2dc2 85be 887c 5fbd 33ec 0dbe 30e2 d03e
000000f0: 3d9a 05be 21d5 953e bb64 8e3e d083 303d
00000100: ab48 dbbd 98c4 fd3e d1e6 8dbc cd34 433d
00000110: a021 c1bd 55a6 5fbe 3ffb b43d 3e46 46bd
00000120: 72e5 a4bd 12eb 923e 0892 803d db97 2fbf
00000130: a3b7 93bd 178c e23b b627 5e3f 3731 3bbe
00000140: 607c e93e 1cd1 843e 2226 c7bd fea8 01bd
00000150: 0426 00bb 3fdf d6bd 4de8 cb3e b6d6 153f
00000160: 5767 67be 15dc 3fbe 2967 5b3e 9ba7 e93e
00000170: f8ae eebd 9a57 10be 67ff 1dbe add3 4dbe
00000180: de8e 0cbe 7ad4 2bbe 08a3 87bd ecee 5abd
00000190: 01a0 68bd 3e57 86be b11b 39be f313 e43d
000001a0: 45b2 07be dfed 6abe 80c1 8cbd 34f8 7ebd
000001b0: 246a 18be b68c 41be cccb 9fbd d773 d0bd
000001c0: 2a09 13be 0039 65bd 3d28 38be bf49 e8bd
000001d0: 1730 61be d4e7 18be d678 2bbd ea60 15bd
000001e0: ef79 a5bd bc38 803f 3b84 d23e 9e7a 8c3e
000001f0: 4b11 e43e 67d0 13be 64cc 68be b767 21be
00000200: d6ae 7cb3 6430 9dbd 498b df3e 1c56 8dbe
00000210: 0707 5abe 5ede 75be 1185 f0bd 3d60 63bd
00000220: 9636 0ebe ba2c 3dbe 92e7 4bbe 9417 8abd
00000230: 2fa9 213e fed4 393d 0add 183b d565 7ebd
00000240: 27df 27be 876c b9bd 35ce 333f 2161 88be
00000250: 4f48 da3d 55bd 24bd 9676 b23d 6118 3e3e
00000260: 8e05 2dbe 4a0a 94bd 221a 81bd 7709 97be
00000270: 13cd f6bd 6576 863d 88ca 353e 1569 adbd
00000280: 0a66 b5bd 0e81 80be 44b5 f2bd 728b 7abd
00000290: a61c 41bd 2179 3dbe d12f 54be d548 fdbc
000002a0: aae8 18bd c7e9 8c3e 8e89 74bd e6ce db3e
000002b0: 0821 57be 44d5 ae3d 27f3 8d3f e5bc 98bc
000002c0: 3004 90bd 5ac7 09be 0afd 03be 1989 a2bc
000002d0: c67b d23c 2d4a 0d3f 20a8 08be 4a91 95bd
000002e0: 8db8 1e3f fbfe 0bbe c6a1 37bd 58d9 2a3f
000002f0: 9f64 bcbd 7d17 16be 9b23 033d 127c c1bd
00000300: 93a7 b6bc d330 9bbe c9fc 3fbe 7422 6d39
00000310: 2c01 7abe 16fc 0ebe ea64 f9bd 741d 743e
00000320: a59f f5bb e3ec 403d 61d3 88bd 93e2 1bbe
00000330: e291 08be 5451 edbd 9283 59bd ecb5 09bd
00000340: 1841 05be fe19 37be f26e ef3d b3b3 653f
00000350: 4486 c2bc 362f a3bd 6a65 89bd 26ad 1a3f
00000360: a3c7 c8bd c51d 10be 75b6 abbd 99d1 173f
00000370: f13d cebd a26c 8f3d d764 b9bd 8fbb cabc
00000380: d49a 59be cd47 d73a 2c8a acbd a31b 9ebd
00000390: a15d 533d b4ff c7be 7257 a9bd dab3 32be
000003a0: 540a 1ebe 9130 d9bd 8c5d 5abd 6518 4abe
000003b0: 05eb ddbc 0f84 d03d 5c2e d9bd 1191 403e
000003c0: 7391 2f3e b31e d13c ed61 76be 3994 4dbe
000003d0: c339 febc 8279 153e 3933 c3bc 65f7 6e3e
000003e0: 08c2 8abd 19fa 48be dd90 08bf d110 fdbd
000003f0: 9894 f2bd 8240 493d abfb 003f b88f 40be
-0.15147579 -0.027254306 -0.11916899 0.32114756 -0.04384117 -0.031288207 -0.1499592 0.44595972
0.07141374 -0.08185858 -0.062541306 -0.09186415 -0.0377948 -0.031580884 -0.054345556 -0.19588938
-0.12694372 -0.08276329 -0.34945077 -0.06536425 -0.026808847 -0.10854151 0.58718497 -0.07682921
0.13953029 -0.09943302 -0.08562648 0.16060884 -0.09635802 -0.13539375 -0.07627944 -0.10123271
-0.020888396 -0.120927624 -0.14310561 -0.3562074 -0.044011828 -0.07212473 -0.03647879 0.1797141
-0.016113251 -0.08072126 -0.3768225 0.092055015 0.30172104 -0.083978064 -0.08434397 -0.10199929
-0.19733508 0.4365368 -0.11104531 -0.14536306 -0.036599223 -0.08145734 -0.11465821 -0.007830831
-0.26124707 -0.05456212 -0.13859634 0.40797567 -0.13047118 0.29264167 0.27811226 0.043094456
-0.1070722 0.49564052 -0.017321976 0.047657777 -0.094302416 -0.21840794 0.08836984 -0.048406832
-0.08051576 0.2869497 0.06277853 -0.6859109 -0.0721276 0.0069136727 0.86779344 -0.18280493
0.45602703 0.25940788 -0.0972407 -0.031655304 -0.001955391 -0.104917996 0.3982567 0.5853075
-0.22598015 -0.18736298 0.21426071 0.45635685 -0.116544664 -0.14095917 -0.1542946 -0.20100279
-0.13726375 -0.16780272 -0.066228926 -0.05345051 -0.056793217 -0.26238436 -0.1807697 0.111366175
-0.13251598 -0.22942303 -0.06872845 -0.062248424 -0.1488424 -0.18901333 -0.07802543 -0.10178345
-0.14358965 -0.055962563 -0.179841 -0.11342191 -0.21991001 -0.14932185 -0.041863285 -0.036469378
-0.080798976 1.0017314 0.4111651 0.274373 0.44544443 -0.14434968 -0.22734219 -0.1576222
-5.8832335e-08 -0.076752454 0.43660954 -0.2760476 -0.21291743 -0.24010608 -0.117441304 -0.0555117
-0.1388801 -0.18474093 -0.19912556 -0.067427784 0.15787195 0.04536914 0.002332511 -0.062108833
-0.1639372 -0.09053903 0.7023652 -0.26636603 0.10658323 -0.040219624 0.08714025 0.18563987
-0.1689665 -0.07228525 -0.063038126 -0.2949941 -0.120508336 0.06565551 0.17753041 -0.084673084
-0.08857353 -0.2509846 -0.1185098 -0.06116814 -0.047146462 -0.18503238 -0.20721366 -0.030918518
-0.03733126 0.27522108 -0.059701495 0.42931288 -0.21008694 0.08536771 1.1089829 -0.01864476
-0.07032049 -0.13454953 -0.12889495 -0.019840764 0.025693785 0.5519131 -0.13345385 -0.07303102
0.6200035 -0.13671486 -0.044832014 0.6673789 -0.091988795 -0.14657398 0.032016378 -0.09447493
-0.022296702 -0.30310687 -0.18748774 0.00022614916 -0.2441451 -0.1396335 -0.12177451 0.2383936
-0.0074958378 0.047100913 -0.06680942 -0.1522315 -0.133369 -0.11587778 -0.05310399 -0.03362076
-0.13013113 -0.17881009 0.11691083 0.89727324 -0.023745663 -0.07967989 -0.06708796 0.60420454
-0.09803703 -0.14073856 -0.0838441 0.59304196 -0.10070408 0.07003142 -0.09052437 -0.024747638
-0.21250468 0.0016424597 -0.08424792 -0.07720115 0.051602963 -0.39062274 -0.08268632 -0.1745142
-0.15433627 -0.106049664 -0.05331187 -0.19735868 -0.027089605 0.10181438 -0.106045455 0.18805338
0.17145328 0.025527334 -0.24060793 -0.20076074 -0.031033402 0.14597133 -0.023828136 0.23336561
-0.0677529 -0.19626655 -0.53346044 -0.12356723 -0.11844748 0.049133785 0.50384015 -0.18804824

fc2.weight f4 [128, 256]
00000000: 2006 2e3d edf8 24bc 6e94 76be 88d8 e4be
00000010: 5464 ea3d 57b0 48be 438c e0bd 3519 02be
00000020: 3ae5 07bf 7234 7cbd 7155 87bd 80bb 92bd
00000030: e591 7ebd c858 f9bc 176c 05be a3a4 98bd
00000040: 5241 87be 95c5 10bd dc42 393e 5cdf 1dbd
00000050: 0552 b7bd d83a 1bbd a1f2 c2bc 2ce3 78bd
00000060: 63e4 ba3d 7e03 b3be 810c 58bd fc5d 4abe
00000070: ddab 2dbd 1dd5 74bc 4975 80bd 52d7 b03c
00000080: 785b 2ebd 9cff 41be e143 163e 3825 36be
00000090: 4f54 7a3e f5c9 bbbd a342 0f3e 6cc3 ff3b
000000a0: 353b 47be 2f67 c5bc fe0a d7bd 83f4 22be
000000b0: 244e f03d 34c9 c5bd 6bdf 89bd 3051 40bc
000000c0: dcc2 ab3e 76c0 84bd a684 a3bd c02d 1abe
000000d0: 9d3d d8bd c838 56bd 9f89 12bd 4cad 85bd
000000e0: 58fe 3b3e 2e7a 863e 7b84 5ebd 0444 cc3c
000000f0: 9d16 f3bd a3d9 f239 261f 2d3e 082d 3dbe
00000100: 7422 92bd 5937 4bbe 68d9 49bd 3c69 febd
00000110: 0977 82bd 0228 8bbd 917f 52be 2616 cebd
00000120: 77c9 043d b165 cabd 9c30 85bd 8cad eb3d
00000130: c879 2fbe 85d6 133d 53dc a93d 7105 bfbd
00000140: d669 67bd 7df9 68be 0a7e 183d a855 d9bd
00000150: ed90 533e 6b80 c6bd 74b2 903b adb8 973c
00000160: fc04 93bd 2699 323d 5f18 1bbe 8067 f93c
00000170: 422e 81bc b34c 353c c071 36bd e00e 41bd
00000180: 1c9f f4bc ec1d bd3a 806c b4bd 5297 99bd
00000190: 6177 4d3d 6664 fbbb 26ee 76bd 8f24 65be
000001a0: 4ab1 b63c f587 6f3f bc6c d2bd d1cc 99bd
000001b0: 86a3 cabd ad99 80bc 24f5 8f3d 7a64 393d
000001c0: c2c4 86bd 4f06 8dbd 21de 4cbd 3e87 4e3d
000001d0: a73c 05bd 5925 703a 41c4 babd 7d14 5bbd
000001e0: 8710 6cbd 745a be3c d5a0 cbbe 97ee 23bd
000001f0: 26aa c6be 0fda e43d 43a1 ecbd bf62 dabd
00000200: 54cf 25bd 71d5 a1bd 33dd 2b3d 6e0c 8e3e
00000210: bdec 1fbd 7c8f 0ebc d371 aabc 6804 80bd
00000220: 12d8 0b3f d883 c0bd e8ed 12be 1b16 34bd
00000230: ced2 863e 5420 7d3d 0f1f a6bc ee4e 91bd
00000240: 0b14 ebbd 4ccb ca3c 62e7 c5bd dc22 17be
00000250: dc08 9dbc 3aa4 f4bb 3a65 7abe 0b04 f43d
00000260: a625 9abd 114d 84bd 8fc7 873c 2527 72be
00000270: 9848 fabd ed97 f4bb 1246 b23d f9f5 7a3e
00000280: 1c3b a2be b298 5fbe a230 09bd 35f2 eb3c
00000290: 8c88 483d 134b 27bd 1f90 d33c 2886 0c3e
000002a0: c803 823b 33c6 3abd 7d5e cfbd 1982 683d
000002b0: b6c4 9fbe 33a8 913e b33f 5bbd 50ad 83bc
000002c0: 8c92 f63d 896d b2bd 3d11 b9bd 6c3d e73c
000002d0: c17f 51be 2c16 51be 5466 ecbd 9364 2abd
000002e0: beb1 cbbe 5c5d 28bd 4aac 26bd 683c fbbb
000002f0: 7809 05be b887 bd3d a98f 283d 8445 adbc
00000300: 2619 6cbd 233d 00be bf8c 803e 6f1d 04bc
00000310: 2741 d8bd 8490 853a 837e 06be cb8f 72bd
00000320: dd5c edbd eec2 ecbd 0148 7c3d d973 d4bd
00000330: 1adc 54bd 9184 4abd a6dc d03d e7a3 0f3e
00000340: bf3e 8ebd c95b 273e 3798 f3bd 78ed 5fbe
00000350: 9451 8b3d b19e 843d 934b b03c 3312 be3c
00000360: 710a 133d ac1a 08be 19f9 c9bd b4a2 edbe
00000370: cb9a a4bc e547 27be 8c45 adbd c06e 9f3b
00000380: 2f64 d4bd 427d d8be c327 d9bd c2c8 eabc
00000390: d908 7fbd 84da 8ebe 7a65 4f3c fa22 d6bd
000003a0: 04f1 d1bd fc68 57be e13e ba3b a34c 733d
000003b0: 46c5 6f3c f09f e4bd b382 72be 574e b6be
000003c0: ffaf 0c3e 23a0 81be 7668 bbbd 2771 e6be
000003d0: c670 72be 37fd 83be 336d ae3c 0d8a 7b3e
000003e0: 84f0 88bd 632d 28be cb27 023e eedc 15be
000003f0: 1fde 903d 18ee 893e 9a13 803c c911 48be
0.04248631 -0.010069114 -0.24080059 -0.4469645 0.11444917 -0.19598518 -0.10964253 -0.12704928
-0.53084147 -0.061573453 -0.066080935 -0.07164669 -0.062150855 -0.030437842 -0.13029514 -0.07453277
-0.26417023 -0.03534468 0.18091911 -0.03854309 -0.08951191 -0.037897915 -0.023797335 -0.060763523
0.091255926 -0.34963602 -0.0527463 -0.19762415 -0.04240023 -0.014943388 -0.0627237 0.021587048
-0.0425677 -0.18945163 0.14674331 -0.17787635 0.24446224 -0.091693796 0.13990264 0.0078052785
-0.1945618 -0.024097053 -0.105001435 -0.15913586 0.11733654 -0.09657517 -0.06732067 -0.011738107
0.33547103 -0.064820215 -0.07984285 -0.15056515 -0.10558627 -0.052300245 -0.035775777 -0.065271944
0.18358743 0.2626509 -0.054325562 0.024934776 -0.118695475 0.0004631999 0.16906413 -0.1847421
-0.07135478 -0.19845332 -0.0492796 -0.124224156 -0.063703604 -0.0679474 -0.20556475 -0.10062818
0.032418694 -0.09882677 -0.06503412 0.11507711 -0.171363 0.036093254 0.08293977 -0.0932721
-0.056497417 -0.22751422 0.037229575 -0.10612041 0.20660754 -0.096924625 0.0044158045 0.018520677
-0.07178685 0.043603085 -0.15146016 0.03044486 -0.015769128 0.01106565 -0.044542074 -0.047133327
-0.029861026 0.0014428473 -0.08809757 -0.07499565 0.050162677 -0.0076718805 -0.06028571 -0.22377227
0.022301335 0.9356683 -0.10274646 -0.07509769 -0.09894471 -0.015698278 0.07029179 0.045261838
-0.06580497 -0.06885969 -0.050016526 0.050421946 -0.032528546 0.00091608387 -0.09119464 -0.053486336
-0.05763295 0.02323649 -0.39771143 -0.04002246 -0.38801688 0.11174404 -0.11554196 -0.106633656
-0.040480927 -0.07902039 0.041959 0.27743858 -0.03904413 -0.0087012015 -0.020806229 -0.062508404
0.5462657 -0.09400147 -0.14348567 -0.043966394 0.26332706 0.06179841 -0.020278482 -0.07095133
-0.11478432 0.024755143 -0.096632734 -0.14759392 -0.019169264 -0.0074658664 -0.24452677 0.11914834
-0.07526712 -0.06460012 0.01657465 -0.23647745 -0.122208774 -0.0074644 0.08704771 0.24507894
-0.31685722 -0.21835592 -0.033493645 0.028802017 0.048958346 -0.04084308 0.025825558 0.13723052
0.003967736 -0.045599174 -0.10125444 0.056764696 -0.31204766 0.28448638 -0.053527545 -0.016073853
0.1203967 -0.087122984 -0.09036491 0.02822753 -0.2045889 -0.20418614 -0.11542955 -0.04159982
-0.39784044 -0.04110466 -0.04069165 -0.007667113 -0.12991893 0.09254402 0.04115263 -0.021151312
-0.05764117 -0.12523322 0.2510738 -0.008063658 -0.10559302 0.0010190164 -0.13134198 -0.059219163
-0.11589978 -0.115606174 0.061592106 -0.10373659 -0.051967718 -0.04944283 0.10198335 0.14027368
-0.069455616 0.16343607 -0.11894267 -0.21867931 0.06802669 0.064755805 0.021520412 0.023202037
0.03589863 -0.13291425 -0.09861965 -0.46413195 -0.020093342 -0.1633602 -0.08460531 0.0048654974
-0.10370671 -0.42283064 -0.10603287 -0.028660182 -0.062264297 -0.2790109 0.012658471 -0.1045589
-0.10251048 -0.21036142 0.0056837653 0.05939926 0.014634436 -0.11163318 -0.2368267 -0.35606644
0.13739012 -0.25317487 -0.09150784 -0.45008203 -0.23675832 -0.25779125 0.021292305 0.24564381
-0.066865 -0.16423564 0.12710492 -0.14635059 0.07073616 0.26939464 0.015634347 -0.19538034

fc2.bias f4 [128]
00000000: 8015 aa3b abde 68be 9432 32bd 086c 043e
00000010: 69c8 383d 4baa 49be 74e0 863d bd70 8a3f
00000020: a648 43bd 8989 1dbe d776 b53d b51c d1bd
00000030: bb2c 153e 05bc 1cbc ffcd 54be d8df 67be
00000040: e7a3 31be 29c5 f2bc 6ad4 e0bd 45db 9f3c
00000050: 3830 4cbe a519 32be 66a7 b2bd 588e adbc
00000060: 4432 bebb 56cc 59be dbbb eebd f84e 46bd
00000070: c67f 10be 0e92 83be 28ce a5bd 2759 38be
00000080: aa0a 20be 8704 dbbd d243 08be e6c0 aabd
00000090: 3cc8 7fbe 71b3 4cbe e1e7 b9bd 8676 f33d
000000a0: 1d49 c6be ac8b 303e 23f0 babd 864b 34be
000000b0: 2cc2 90be 8afb 8bbd 44c4 fbbd 6d76 05bd
000000c0: 0752 8dbc 9a1e 18be d2fc 303e caea b93d
000000d0: 6d51 1dbe 1d98 443e 632e 04be be82 96bd
000000e0: cbd3 0dbe 056e 4b3e b572 56bd 5ea4 f8bc
000000f0: 04b2 4abe 066a 20be 5a84 9bbe a936 34be
00000100: 1b6a 763c 5fd5 f8bd 4629 31be 127e 8cbe
00000110: 16ee 57bd eb27 9dbe 747f c43d 77b6 cf3c
00000120: 1056 db3c ebbd c9bd cf0f 49be 8107 07bd
00000130: 2fe1 d3bd 085b ecbd 0583 a93e 9eb4 a3be
00000140: d409 6abe ee54 023e 6e20 85bd 2aff a1bd
00000150: ae49 1abe 789a c2bd bbd2 e6bd 7031 7abe
00000160: 1983 a4bd c0aa e2bd c834 b5bd c03e 10be
00000170: 8fbf 09bd 5002 b4bd ceef 14be 3bf5 d1bb
00000180: 5a2c 7dbd 8834 eebb 1962 f73d c76e ddbb
00000190: 0874 52be c9bc ccbd 4107 0bbd a989 5ebe
000001a0: 26b0 aa3d 9e46 023c 2a36 4dbd 0664 0c3c
000001b0: d3b2 353e ed67 63bd cfde 873b 269a 01be
000001c0: 0276 19be 4f18 68be d053 a73e 9fd3 35be
000001d0: 7c50 3ebd 3b89 99be 44ef 3dbe 636c a8bd
000001e0: 801d 07be 784b c43c a941 30be d184 28be
000001f0: b0b5 afbd 82d6 353e 6189 2cbe c77f 66be
0.0051905513 -0.22741191 -0.043505266 0.12931836 0.045113 -0.19693868 0.0658578 1.0815655
-0.047676705 -0.15384497 0.088605575 -0.102105536 0.14567845 -0.009566312 -0.20781706 -0.22643983
-0.1734768 -0.029635029 -0.10978015 0.019513736 -0.19940269 -0.17392595 -0.08723335 -0.021186039
-0.005804332 -0.21269354 -0.11656924 -0.048415154 -0.14111242 -0.25697368 -0.08095962 -0.18002759
-0.15629068 -0.10694223 -0.13307121 -0.08337574 -0.24978727 -0.19990326 -0.090774305 0.11887841
-0.38727656 0.1724078 -0.09127834 -0.17606935 -0.2827314 -0.06835087 -0.12293294 -0.032583643
-0.017251028 -0.14855424 0.17283943 0.090779856 -0.15363093 0.19198652 -0.1290832 -0.07349156
-0.13850324 0.19866188 -0.052355487 -0.030351814 -0.1979447 -0.15665445 -0.30374414 -0.17598976
0.015039946 -0.12150072 -0.17300901 -0.27439934 -0.05271729 -0.30694517 0.09594622 0.02535556
0.026774436 -0.09850677 -0.19634937 -0.03296614 -0.10345685 -0.115408 0.33107772 -0.31973737
-0.22855312 0.1272771 -0.06500326 -0.07909997 -0.15067169 -0.09502119 -0.112706624 -0.24432921
-0.080328174 -0.11067724 -0.08847958 -0.14086437 -0.03362995 -0.087895036 -0.14544603 -0.0064074076
-0.061809875 -0.007269446 0.120792575 -0.0067575905 -0.20552075 -0.099969454 -0.033942465 -0.217322
0.08334379 0.007951407 -0.050100483 0.008568769 0.17743997 -0.055519033 0.004146434 -0.12656459
-0.14986423 -0.22665523 0.3268113 -0.17756508 -0.046463475 -0.2998751 -0.18548304 -0.08223798
-0.13194847 0.023961768 -0.17212547 -0.16456915 -0.08579576 0.1775761 -0.16849281 -0.2250968

fc3.weight f4 [128, 128]
00000000: c73e 2f3d 2ce8 f73c 3ed6 63bd ed22 0fbb
00000010: 01bb 55bb 2ff6 95bd 78f1 9bbc edbe e0bb
00000020: 106f aabd 2ce1 80bc 5f62 0f3d 5cab 773d
00000030: 99a8 643d 04cd 553d adde 15bd f80a 433d
00000040: 98a8 abbd 7050 54bd 0003 12bd 0c0b 573c
00000050: 14fd 76bd c507 91bd 00a9 63bd aac8 8b3d
00000060: 43a3 523d bc5f babd 6d74 433c eab0 1c3d
00000070: c7a3 413d e69c 96bc c2f7 5cbd cdda a4bd
00000080: 702e 283d f40a 6cbc ffc8 56bc 9d46 693d
00000090: c1d5 ae3c 987b a43c 6dff 92bb cc20 363d
000000a0: 6205 e1bd 023d 363d db2d 213d 06f4 623d
000000b0: 6485 bbbd 6515 c83c 9b3b 2d3d 364a 1ebc
000000c0: ea4f 7a3d 597b 48bd 8318 113d b80d 2bbd
000000d0: e505 113d b922 113b 0dd0 ac3c a56d ccbd
000000e0: 329d 573d 0a0d d0bb 6a1e 80bd 253c 80bd
000000f0: 4141 e3bc 7b88 9dbd b6ee a4bd 199c e1bc
00000100: a4a9 413c 5925 a7bd f55a 4dbd 6356 66bd
00000110: 9803 2c3d 415b 38bb 6dd8 1dbc 0726 23bd
00000120: 2eb9 a8bc 995b 27bd 8bbc 55bd d61f 15bd
00000130: de79 9ebd 58ee 45bc 9533 e3bd e289 bdbc
00000140: b6f7 8fbd c079 8dbd 3f9e 9f3d 6007 14bd
00000150: 4169 883d d9ab 81bc 4d3e 4abd 461e 9bbd
00000160: cc84 133d 054a 663b aaeb 59bd 40bf 0cbd
00000170: 98c1 d2bc 91fc 033d b803 cb3c 63d8 51bd
00000180: 972d e7bc 255f a6bd 77bf 55bd 99de 92bd
00000190: 8bf9 123d 2901 203c fa53 3abc 64c6 c1bd
000001a0: b5a0 133b 7863 463d d4b4 6e3d f5e6 05bd
000001b0: cd0c c5bc 0841 203c eaee f8bc 4ce8 8e3d
000001c0: 668c 3a3b ad7e f1bc eab7 573d affd a0bd
000001d0: 6765 153d 4764 51bd 7877 2ebc 1a31 8bbd
000001e0: cb32 c5bd d174 e13c 59a2 5fbd b5aa 9b3d
000001f0: 2f27 123d 96c5 cf3b 5049 1fbd 6d6c 1f3d
00000200: e6bd 2fbd 2fa7 a83d 44ee 85be 6376 173d
00000210: c344 b7be 2447 cc3d af6d 8dbe 02d7 75be
00000220: d8c8 cd3d c7f8 b73e 8aaa 6c3d 52b0 f03d
00000230: a9fd 08bf f441 073d 3edb e23c 0c42 413d
00000240: 2ec3 08be 5ddf a23d c3bf 7c3e a18f 073c
00000250: 9634 2f3e 29ef 12be 0793 89b9 827f b93d
00000260: bfc0 bd3d 46f0 333e a1dd 403d f3dd 46bd
00000270: 2f00 4a3c 987e 5f3e 90a0 9bbd f242 9abc
00000280: cd88 9abd 5c00 d13d 07ce 2dbd 88cd 543e
00000290: 82cf 623e bd0f f0bd 9096 5cbd be6f d53e
000002a0: cc2d 5abd 4861 d93e 9d0a c03c f947 093e
000002b0: c457 3fbe 7029 3ebe ecb6 923d b72a 8dbd
000002c0: ff46 a13d ebf1 883e fb09 9d3e 700c cfbb
000002d0: 248e 823d 4fc7 9ebe 75bd c5ba 41fd a5be
000002e0: 72d1 8e3a 221a e43d 123f 84bd c108 1e3e
000002f0: 2739 a53d d8b0 e63a 9fbc e53d 09fa cebd
00000300: 5797 d2bd b3d9 afbc 4a05 30be 2b13 c13e
00000310: 5af4 293e 5783 593e 6950 1f3e 4c0d 6abc
00000320: 1ad9 86bb 68f8 b03d ce97 b2bd f172 49be
00000330: 26ff eabd aba9 f7bd 4a6e 8fbe 6232 e53e
00000340: ef23 af3d db7b 143e e403 b13d 204f bdbd
00000350: e011 92be 1e6e 003d 2d8a 45be e4fa 813e
00000360: 32b7 c2bc 723a cc3e c63f 17be fc86 84be
00000370: 2858 b4bd 52c6 5cbd 68b8 01be e4b3 95be
00000380: 471a e63d 64be 2fbd 6e7a f0bd 3c4e 92bd
00000390: 6bda 54be 38bb 40bc 2d0b 663e 12cc fa3d
000003a0: 0408 763c 21de 173e e20e babd 4ebd 1abe
000003b0: 3cbb 57be fb4c 6c3d b430 793d ee07 273e
000003c0: 0ce8 14bc 6c66 113e 21dc 6ebe c436 863d
000003d0: 25f8 883e fc9e f33d 014e 523e 4549 08bf
000003e0: f5ca a63e ea22 0d3c 8a28 963d b249 04be
000003f0: 60a2 b43d b6f0 ba3c 3752 01bf 8e39 f03d
0.04278448 0.030262075 -0.05562424 -0.0021840886 -0.0032612684 -0.073223464 -0.01903604 -0.0068586976
-0.08321965 -0.01573237 0.035005923 0.060466155 0.05582485 0.05219747 -0.036589313 0.047617882
-0.08381766 -0.051834524 -0.035647392 0.013125192 -0.060299948 -0.0708156 -0.055581093 0.06825383
0.05142523 -0.09100291 0.011929614 0.038254656 0.04727533 -0.018385362 -0.053947218 -0.080495454
0.04105991 -0.014406908 -0.013109445 0.056952108 0.02134216 0.020078465 -0.0044860155 0.04446487
-0.10987355 0.044491775 0.03935037 0.0554085 -0.091563016 0.024424264 0.042293172 -0.009661248
0.06111137 -0.04894576 0.035423767 -0.04176113 0.035406012 0.002214594 0.0210953 -0.099818505
0.052640148 -0.0063492106 -0.06255801 -0.06261472 -0.027741076 -0.07692047 -0.08053343 -0.027540253
0.011820231 -0.081614204 -0.05013557 -0.05623473 0.041995615 -0.0028130563 -0.009634119 -0.039831188
-0.020596113 -0.04085884 -0.05218176 -0.036407314 -0.07738088 -0.012080751 -0.11093823 -0.023137037
-0.07029669 -0.069079876 0.07793855 -0.036139846 0.066607006 -0.015829014 -0.04937582 -0.075741336
0.036015317 0.0035139334 -0.053203262 -0.034362078 -0.025727078 0.032223288 0.024782047 -0.051231753
-0.028219981 -0.08123616 -0.05218455 -0.071713634 0.035882514 0.009765902 -0.011372561 -0.09461668
0.0022526209 0.048434705 0.05827792 -0.03269096 -0.024053955 0.00978113 -0.03038736 0.06977901
0.0028465032 -0.029479349 0.05266563 -0.07860886 0.036473658 -0.051121023 -0.010648601 -0.06796475
-0.096288286 0.027521523 -0.054598186 0.07600919 0.0356819 0.0063406928 -0.038888276 0.038921762
-0.04290571 0.08235013 -0.26158345 0.036978137 -0.3579465 0.099745065 -0.27622744 -0.240078
0.100480735 0.3593199 0.057779826 0.117523804 -0.53512055 0.033021882 0.027692433 0.047182128
-0.13355705 0.079527594 0.24682526 0.00827399 0.17109904 -0.14349045 -0.0002624022 0.09057523
0.09265279 0.17572126 0.04708636 -0.04855151 0.012329145 0.21825635 -0.07598984 -0.01883075
-0.07545624 0.10205147 -0.04243281 0.20781529 0.2214947 -0.11721752 -0.053854525 0.41686815
-0.05326633 0.42457032 0.02344256 0.13406362 -0.18685824 -0.18570495 0.07163796 -0.06892913
0.078748696 0.2674707 0.30671677 -0.0063186213 0.063747674 -0.31011435 -0.001508637 -0.3241978
0.001089616 0.11137797 -0.06457342 0.15433027 0.080675416 0.0017600311 0.11217617 -0.10106284
-0.10282772 -0.021466112 -0.17189518 0.37709936 0.16597119 0.21241508 0.15558018 -0.014285397
-0.004115236 0.0864113 -0.08720361 -0.19672753 -0.11474447 -0.120929085 -0.2801383 0.44765002
0.08551776 0.14500372 0.0864332 -0.092436075 -0.28529263 0.031355016 -0.19290991 0.25386727
-0.023768995 0.3988834 -0.14770421 -0.25884235 -0.08805877 -0.05390007 -0.12668002 -0.29238808
0.11235481 -0.04290618 -0.117421016 -0.07143828 -0.20786445 -0.011763386 0.224652 0.122459546
0.0150165595 0.14830829 -0.0908487 -0.15111277 -0.21067518 0.0576906 0.060837463 0.16311619
-0.009088527 0.14199227 -0.2332616 0.065534145 0.2675182 0.11895558 0.20537569 -0.532368
0.3257672 0.008614281 0.07331951 -0.12918738 0.08820033 0.022819858 -0.50516075 0.11729728

fc3.bias f4 [128]
00000000: 94aa c4bd c0aa 97bd 5a12 e6bd 3845 48be
00000010: 6ecc 49be a122 983c bc4f 6dbe 2e56 ed3b
00000020: c2a8 afbe 6b6e 42be 0e6f 91be d205 36bd
00000030: 5a19 dc3a 6396 76be 3c38 6abe 9ee5 3ebe
00000040: c152 85be 291d ebbd 12b3 f43c f547 76be
00000050: 60c8 b9be ee57 11be 5cdb a7bd 444c 82bd
00000060: ff8a 7cbe ddc6 ccbd 4ee1 1cbf 1520 2dbe
00000070: 9782 c1be d0fc e8be 29ba 13bd 8452 07be
00000080: 875e 80bd c3c9 75be b56b 48be 788c 36bc
00000090: 14a5 08be 242e 26be f01d 87bd cf37 723d
000000a0: 6e27 68be 45cb 13be 763a b4bd 1f98 1cbe
000000b0: 3565 6ebd 4262 f9bd a96e 65be 97d7 6abe
000000c0: 2bd2 68be fcde a33d da55 e9bd 0b75 14bd
000000d0: 9735 73be 1a5c 383e 9341 4e3e dab5 7ebe
000000e0: 1f00 c4bd 3ec1 b9bd e3fe a2be 963c 83be
000000f0: 7363 5bbe b549 903c 85eb a4bd ebea a8bc
00000100: 69a9 0abe de74 0cbe 71ad 9dbd 5205 01be
00000110: ae7d bbbd c914 63be 9161 a2be af12 d5bd
00000120: 0b6c bebd 2bc4 92be 52b3 41be 5dab 33be
00000130: a62b 6dbe e3f5 2abd 8863 1abe f85a babd
00000140: 9c79 5c3c 8b17 b4bc 8f68 9fbe ce9a 9bbe
00000150: 60cc d4be 2fcf 0dbe 840d 8bbc 1281 0abe
00000160: 34de d1be 497c 10be 0c43 99be 027b d9be
00000170: f23f 64be da15 81bd 2c01 02bd c871 20be
00000180: bb96 31be f166 453e d6b0 86be f864 dcbd
00000190: 2017 80bb 4fec 3fbe eacc 40be fd1f d7be
000001a0: d0e0 54bd fc29 1abe e049 d2bd fc96 66be
000001b0: 577b 17be 4d6f 57be e8c7 94bd 892d bebe
000001c0: a38f e2bd 497e a03e a56e 15be a0d6 29be
000001d0: fca5 9bbe cf59 4f3e abb6 d1be debd 9c3b
000001e0: 63cf 17be 9fd3 2cbe 871a d3bd c6f1 803e
000001f0: d06d 97be ca5c 45be 8f6d 9ebe 4f2e 98be
-0.09602848 -0.07405615 -0.11233969 -0.19557655 -0.1970689 0.0185712 -0.23174948 0.0072429394
-0.3430844 -0.18987434 -0.2840504 -0.044439144 0.0016792223 -0.24080805 -0.22873014 -0.1864228
-0.260397 -0.11480171 0.029870544 -0.24050887 -0.36285686 -0.14193699 -0.08196136 -0.06362203
-0.24662398 -0.09998868 -0.6128129 -0.1690677 -0.37794945 -0.4550538 -0.036066208 -0.13215071
-0.0626803 -0.24002747 -0.19572337 -0.011141889 -0.13344222 -0.16228539 -0.06597507 0.059135254
-0.22671291 -0.1443301 -0.08800213 -0.15292405 -0.058201987 -0.12176944 -0.22405495 -0.22933803
-0.22736423 0.08001515 -0.11393328 -0.036244433 -0.23750912 0.18003884 0.20142202 -0.24874058
-0.095703356 -0.09070061 -0.31835088 -0.2563216 -0.21424656 0.017613271 -0.08052734 -0.02061983
-0.13541187 -0.13716456 -0.07699097 -0.12599686 -0.09154831 -0.22175898 -0.31715062 -0.10403954
-0.09297951 -0.2866529 -0.18916062 -0.17545839 -0.23161182 -0.041738402 -0.1507703 -0.09099382
0.013456728 -0.021983882 -0.3113446 -0.30391544 -0.41562176 -0.13848566 -0.016974218 -0.13525799
-0.4098984 -0.14109911 -0.29933965 -0.4247666 -0.22290018 -0.06302996 -0.0317394 -0.15668404
-0.17342655 0.1927755 -0.2630679 -0.10761446 -0.0039090067 -0.18742488 -0.18828169 -0.42016593
-0.05197221 -0.15055078 -0.10267997 -0.22518533 -0.14793144 -0.21038552 -0.072646916 -0.37144116
-0.11062553 0.31346348 -0.14592989 -0.16585779 -0.30400074 0.20249103 -0.40959677 0.004783376
-0.14825206 -0.16877602 -0.10307794 0.25184458 -0.29575968 -0.19273677 -0.30942962 -0.2972283

fc4.weight f4 [64, 128]
00000000: b7d0 c43c 39f5 83bc 0db1 98bc 9449 f9ba
00000010: 4b1b 39bd 6bbe 24bd 1afa d4bc 7974 62bd
00000020: d506 1f3d 71f4 48bd 62e6 07be 163b 7cbd
00000030: d11b 94bd af82 c33c e0ac 983c 0922 03be
00000040: 43d5 5cbd 706b a1bd 9e64 e6bc 9467 9fbd
00000050: bd74 00bb d881 b33c 7a55 63bd 5ce0 c4bc
00000060: b03e f0bd 001c 56bc 49a4 ed3c a3ab 49bd
00000070: dcf2 aebc 8c0f 073d 1517 94bc 0bb8 503b
00000080: 2b51 dbba 0735 04bd 43ab 5ebd e808 abbb
00000090: 8e82 e33c 1e17 f73b 9716 08bc 1625 e0bc
000000a0: baba a4bd d390 b6bc 91ef d43c ae31 31bd
000000b0: 97ff 333c 976b eabd 4024 6fbd af76 a5bd
000000c0: a19c e2bd 9ed4 a6bd 8a46 943d a2ae 31bd
000000d0: 58b5 af3d ba2d 8ebd cccc c9bd 5bd7 2b3d
000000e0: be40 94bd dfd3 c7bd c8b2 0e3d 4163 1a3d
000000f0: 74d6 ffbb 9d2d 4dbc 6788 20bc 7cef 04bc
00000100: bc2f a1bd ddfd 99bd 9e98 d5bd bcaf babd
00000110: b1e7 e3bc 69f6 9ebd 81c5 a13b c332 d6bd
00000120: a40a 153d 911c b2bc 0e84 98bb 8c6f f5bc
00000130: 8534 093d 158b 25bd c070 f73b d8ba 253d
00000140: 7465 edbd a9a1 e4bd 4186 ff3c 860c 9cbd
00000150: 5c86 13bd 1ec1 db3c 4555 efbd 4bf0 96bd
00000160: 3550 d6b8 5d04 a4bd b4d2 c9bd fbd8 ec3b
00000170: 6d56 3dbd cdf1 95bc 3ac8 143d 89e0 83bc
00000180: 5689 3dbd 734f 1d3d 7399 8a3c 54a7 f3bd
00000190: 705c 15bd 1aeb 03be f8e1 37bb caf5 4fbd
000001a0: 86d4 303c 8019 623c 037d ebbc 8c87 12bd
000001b0: 6494 aebc 9677 19bc c99e 3bbd 9230 f4bc
000001c0: 2b6f cabc 9b5a 0b3d ec43 26bd 0abc 42bd
000001d0: f6ea 243d b74a 723c 2160 21bd fc4f 3ebd
000001e0: 6b11 b4bd 2426 b7bc 7ae1 e6bd 0717 b1bb
000001f0: 0ac4 7cbd 0981 56bd 666c 9ebc 75bf 82bc
00000200: d65f 473d 07cb 70be 98fb c43e 776a e7bd
00000210: 6e5f c5bd 8d64 e8bd 7380 d8bc 9e17 adbe
00000220: 2312 b03e f2a2 8e3e 188b b9be 328f 3a3e
00000230: 3a04 f3be dab5 8b3e e77c 52bd 3054 8cbd
00000240: 885a a03d 5edf 27bd cbbe 17bd 3dff a73e
00000250: c40d 8bbb b1da b0be f6b6 a7bb 338a de3d
00000260: 9d90 263d 3f9b b53d 890f 593e 0554 a43d
00000270: 862f 913b c343 27bd ddd0 e9be df6b 73bd
00000280: 2726 17be f07d afbd 5b2f 68be ebc1 9abe
00000290: 0d86 80be f5ac 85be 54ec 06be 4903 00bd
000002a0: 2be9 39bd 387b 0dbe 5652 50bd 9698 bebc
000002b0: 6404 b0be fe76 aabc 3019 b2be efc6 653c
000002c0: ab44 813e 5815 81be 57fb 5dbb ed7e 09bd
000002d0: 598c e53d 3a90 f5be 4555 e6bd b2ab a93d
000002e0: e39c 29be e4e4 aa3d 22e4 ecbe 02cb b7bd
000002f0: 2613 60bd 8ed6 59bb a795 08be 23dd 3d3e
00000300: 99f1 953e 01fd cb3d 0e08 253d e894 153d
00000310: b2cf 913c b732 0cbf 1af6 eebd a5c1 c63e
00000320: 1046 c8bc 1b35 48be aeb8 55be c4bd a93e
00000330: 558e 3bbe 1172 10be 2458 0dbf c51a e0bd
00000340: 32f7 fb3d 07d0 723e 6204 03be 80b0 a93c
00000350: 288e c93d 8f13 cf3c cba5 1bbc eaa4 85bb
00000360: a072 b2bc 4042 0a3d 36a4 83be c6e2 e4bd
00000370: 19f6 c6bd ad88 83bc 4efb 113b e9a9 cb3d
00000380: 37e4 c33e 16dd bebd 6ea8 993d 5a5f 2cbd
00000390: d337 86be aa10 e6bc 21cd 043f 4cec 2a3e
000003a0: 050d f03d f964 03bb f860 80be a51e 863d
000003b0: 10d0 49be f8ed 21be 3736 903e dc42 2ebe
000003c0: 3342 24be 096a 213e bf18 af3c f837 893d
000003d0: b040 e73d 8787 413e 89ea 0d3e 3b0c dcba
000003e0: 46f8 803d 43eb 96bd 8e66 babd 0b7d c3be
000003f0: 81c6 b6be 98cb d4bd b72a 9cbd cb5c 683d
0.024025304 -0.016108142 -0.018639112 -0.001901912 -0.045192044 -0.04022066 -0.025998164 -0.05528686
0.038824875 -0.049061242 -0.13271478 -0.061579786 -0.07231868 0.023866026 0.01863712 -0.12805952
-0.05391432 -0.0788182 -0.02812415 -0.07783428 -0.0019600831 0.0219125 -0.05550144 -0.024032764
-0.11730707 -0.013068199 0.029009001 -0.04923595 -0.021356039 0.03297381 -0.018077413 0.003184798
-0.0016732564 -0.032277133 -0.054362547 -0.0052195676 0.027772214 0.0075405976 -0.008306167 -0.027361434
-0.08043428 -0.022285854 0.02599314 -0.04326027 0.01098623 -0.114463024 -0.05838418 -0.08079278
-0.11065031 -0.08146022 0.07240017 -0.043379433 0.085795105 -0.069423154 -0.09853515 0.041953426
-0.07238911 -0.09757208 0.034838468 0.037692312 -0.007807547 -0.012523082 -0.009798146 -0.008113738
-0.07870433 -0.07519124 -0.104295 -0.0911555 -0.02782044 -0.07761843 0.0049368744 -0.10458901
0.0363871 -0.021742137 -0.004654414 -0.029960416 0.033497352 -0.040415842 0.0075512826 0.04046139
-0.11591616 -0.11163647 0.031191947 -0.07619576 -0.036016807 0.026825484 -0.11686186 -0.07370051
-0.00010219255 -0.08008645 -0.098546416 0.0072280145 -0.046225 -0.018303776 0.036323763 -0.016098278
-0.046273552 0.038405847 0.016918873 -0.1189715 -0.03646511 -0.12882653 -0.0028058272 -0.050771512
0.010792857 0.013800025 -0.028746134 -0.0357738 -0.021310993 -0.00936689 -0.045805726 -0.029808316
-0.024711212 0.034021955 -0.04059212 -0.04754261 0.04026314 0.014788321 -0.039398316 -0.046462998
-0.08792385 -0.022357054 -0.11273475 -0.0054043564 -0.061710395 -0.05236915 -0.019338798 -0.015960434
0.04867538 -0.23514949 0.384732 -0.112996034 -0.096373424 -0.113473035 -0.026428437 -0.3380708
0.34388837 0.27858692 -0.36238933 0.18218687 -0.47464162 0.2728718 -0.051388647 -0.06851995
0.078297675 -0.040984504 -0.03704719 0.3281192 -0.0042435843 -0.34541848 -0.005118246 0.10866203
0.040665258 0.088675015 0.21197332 0.08023838 0.004430714 -0.040836107 -0.45667163 -0.059429046
-0.14760648 -0.085689425 -0.22674315 -0.30226073 -0.25102273 -0.26108518 -0.1317609 -0.031253133
-0.045388382 -0.13816535 -0.05085977 -0.023266118 -0.3437835 -0.020808693 -0.34784842 0.01402448
0.25247702 -0.25211596 -0.0033871734 -0.03356831 0.1120841 -0.479616 -0.112467326 0.082847014
-0.16563754 0.08344439 -0.46267802 -0.089742675 -0.05470576 -0.0033239457 -0.13338338 0.18541388
0.29285887 0.09960366 0.040290885 0.03651896 0.017799232 -0.54764885 -0.11668034 0.38819614
-0.02444747 -0.19551508 -0.20871231 0.33152592 -0.18316014 -0.14106013 -0.55212617 -0.10942606
0.12303008 0.23712169 -0.1279464 0.020714045 0.09841567 0.025277881 -0.009499977 -0.004078497
-0.021783173 0.033754587 -0.2571122 -0.11176066 -0.09714908 -0.016056383 0.0022275033 0.09944517
0.38260052 -0.093195125 0.075028285 -0.04208312 -0.26214465 -0.028084118 0.518755 0.16691703
0.11721233 -0.0020049198 -0.2507398 0.06548814 -0.19708276 -0.15813434 0.28166363 -0.17017692
-0.16040878 0.15763105 0.021374105 0.06700128 0.11291635 0.18899356 0.13859 -0.0016788313
0.062973544 -0.07369091 -0.09101592 -0.38181338 -0.3569832 -0.10390395 -0.07625335 0.05672912

fc4.bias f4 [64]
00000000: c24b bdbd 2cfc 2abd 223a 2fbe da38 07bf
00000010: d80e 45be 35c7 98be c269 02bd d1ed 2ebe
00000020: 4cea 05bc f6b4 b6bd 5d2f 82bd c4d9 dcbd
00000030: 7cf6 d7bd d3b0 babe 17be b4bd 0ffd b93c
00000040: c19f 89be 9b0e 5fbd 05d2 d6bc 5ac4 31be
00000050: 82f2 7a3e 8ca7 71be c81b 0cbe 0bd2 d8bd
00000060: cee0 ba3d 18ff 563e 1f39 c1be 3827 02be
00000070: 34f8 8ebe 68bb 45be c152 58be 8a35 48bd
00000080: d6cd f4bd 7ce9 37be 3678 a83c b31c 17be
00000090: 5ed3 2ebe 1226 36be 37dc 8cbd 70fa d0bd
000000a0: a731 5ebe 4523 51be 2944 2abd d18e 11bd
000000b0: d405 b93d 032b fbbd f36e 9cbc 4b75 88be
000000c0: 6b8e 5dbe 1c07 b1be 85f3 81bd 3452 4dbe
000000d0: ae80 82be 75aa 24be b3fa 10bf 2c75 bebd
000000e0: b28c 3abd 1e9e 72be 8dcf 2fbd ce78 34be
000000f0: 01a9 89be 3289 7ebe 2f99 eabd d8cc 13be
-0.09242965 -0.041744396 -0.1711202 -0.52821124 -0.19243944 -0.29839483 -0.03183914 -0.17082907
-0.0081735365 -0.08921234 -0.0635669 -0.10783723 -0.1054506 -0.3646303 -0.08825319 0.022703676
-0.26879695 -0.05445729 -0.026223192 -0.17360058 0.24506572 -0.2359907 -0.13682473 -0.105869375
0.09124909 0.20995748 -0.37738892 -0.12710273 -0.2792374 -0.19309771 -0.21125318 -0.048879184
-0.119533226 -0.17960161 0.020565134 -0.14757042 -0.17072818 -0.1778796 -0.0687794 -0.10204017
-0.21698628 -0.2042361 -0.04156891 -0.03553659 0.09034315 -0.12264063 -0.019095873 -0.26651987
-0.2163636 -0.34575737 -0.06345276 -0.20050889 -0.254888 -0.16080649 -0.56632537 -0.092996925
-0.045544334 -0.2369313 -0.042922545 -0.17624208 -0.26886752 -0.24857023 -0.11454999 -0.1443361

fc5.weight f4 [32, 64]
00000000: ddac 693d 1904 fd3d 5aae 70bc c456 d43c
00000010: 8d2f b0bb e193 e3bc 87e2 e3bd c6ac b93d
00000020: fa22 5f3d aae4 be3d 15bc 00be b632 063e
00000030: 51a3 c9bd c533 7e3e d8fa afbd c2f5 503d
00000040: 3c82 aebb 35ea 953d 3ce1 0e3d de7a 103e
00000050: ff99 ae3d 5396 2d3d d016 86be 46f2 2dbe
00000060: bd5a 3abe 7672 39be c718 d63c b35c 04be
00000070: 45ed 123e 2c90 d6bd 1ddb 783e 6dd5 553c
00000080: fa60 163e fc42 3f3d 0831 a23d 1e70 4fbd
00000090: 2576 b6bd 5074 833d 8fc3 e7bd 3b3b e53d
000000a0: 77f3 963d 8ce0 97bd 0add 7a3d b1f2 813c
000000b0: e195 6b3c 49f6 18bd 444e 3a3d ec95 8bbe
000000c0: 99d4 bcbd e267 6c3d b4be 163e 1562 5e3d
000000d0: 3e08 0e3e 6785 8cbd 3eed 91be b27b ecbd
000000e0: 9db7 a73c 584b 07be 5815 aebd 5fbf cabd
000000f0: eba3 c63d 08e5 a5bc 7335 ccbc d9b2 253c
00000100: 8783 25bd d0ee 593e 9418 02bc ce8c bbbe
00000110: 2b04 40bd 8086 19be 2da3 863e 778f 833d
00000120: e108 03bd 6e9e 39bd dcbe a3bc baf4 80bd
00000130: 779c e23d eaa4 01be e4c5 f5bc b551 45bc
00000140: ac96 21bd 07a4 acbc ae60 47be 2955 ab3d
00000150: 0382 babd 25f8 fd3c cc7f 09be 8901 33be
00000160: e4e7 47bc 9e97 ab3c 5fc7 c5bd 0b82 e73d
00000170: 4dcd e53e af4f 0b3e 1ea8 963d ac1d 6fbd
00000180: 6a76 46bd d5da bcbd af9a f1bd d538 89bc
00000190: d25c 19be 2a8b 7f3c da30 743d 6370 1fbe
000001a0: e9f9 60bb 798e 1cbe c957 cfbc 7342 03bd
000001b0: 855a 2abd 5f25 1e3d db22 9e3d d5e7 9a3d
000001c0: 1f33 7a3d 0f44 1ebe 1e3a 84bd 6fb1 05be
000001d0: e7ef cdbc 9ced 96be c268 5c3b 3bb3 8fbd
000001e0: 1815 6cbd 0c16 00be d81f d2bd ac23 1fbe
000001f0: 3d19 88bd c3ab 5ebe 415e 09bd 3afa 4fbe
00000200: ffe9 68bd e4b5 99bd 60aa e83b 8f21 80bd
00000210: d226 c83c 497a a9bd 704a 913b aebd 42bd
00000220: 0191 22bc 3241 93bc 899d 2fbe 6323 28bc
00000230: 976f d4bd d502 1b3d 8b3d 0c3d e7f0 84bd
00000240: f0d2 68bc 7acf c5bc 369d a83d 063b 1fbe
00000250: be4e 13be 6f36 a4bd 54af f8bd d2ed 22be
00000260: 9515 7bbd d063 05be 0e14 013e 8295 013e
00000270: 9085 c63d 0fe3 d6bd 719e 30be 2149 043c
00000280: 44f8 253e 19a8 203e 4eea 72bd ce68 563e
00000290: 7621 debd 0e64 84bd 84aa d73b 5c82 973a
000002a0: f297 00bd ba7a 8e3d 023d 6d3c 9f3d e5bd
000002b0: 0f22 e8bd 33f3 f4bd 724d 6dbe ae45 e4ba
000002c0: 8136 01be a7e8 2dbe 8d09 2fbd 2057 4f3d
000002d0: df03 593c 3b9c 57bd c25d 59be 8045 fa3d
000002e0: 1f2f 99bd 04e4 03bd a5f6 dd3d ba14 563c
000002f0: 44ac 13be 3019 a8bf 960a 5abd abf9 d5bd
00000300: 858b cebd cc5c f93d c848 3abe 36a0 29be
00000310: 8db8 8ebe e298 99be c4bd adbd c325 c53b
00000320: 0624 26be c074 fd3c 4341 7cbd 1883 67bd
00000330: a3f8 cbbd 9f5a 183e 8127 31bc 7e68 e8bd
00000340: 4f80 9abd d67f bcbd 22b5 453c afe3 52bd
00000350: 9a0a 1d3e aa42 37be 0229 8dbe f096 f3bc
00000360: 7707 87be 0301 a7be aa02 c4be 2a15 8abe
00000370: f3f7 933e 510b bcbd eb30 c3be 1c73 323d
00000380: 07ce 59bd 45f8 e7be 6f58 a23d 3b47 a93e
00000390: 49d4 1c3d 83f9 833d bcb3 8bbe 9542 d3be
000003a0: 008f 9fbd 1119 0fbf 8a08 ba3d 7e89 e8bd
000003b0: 2516 c2be 4887 03be 95c7 b0be 8344 113c
000003c0: 72ee 6bbd cee2 023f 33e2 cebd 70d9 65be
000003d0: 7319 5dbe b2e8 6a3e f7c1 e13e 64f0 d6bd
000003e0: 0f7e c4bd ce54 5abf abab 953e a433 9dbe
000003f0: 55e0 85be ebcf a4bd 9acd 623d 4405 a4be
0.05704962 0.12354297 -0.014690006 0.02592028 -0.0053767622 -0.027780475 -0.11127191 0.09066157
0.054476716 0.09320958 -0.12571748 0.13105282 -0.09845603 0.24824436 -0.085927665 0.051015623
-0.0053255837 0.07320062 0.03488277 0.1410937 0.08525466 0.04237969 -0.2618928 -0.16986951
-0.18198676 -0.1811007 0.026134862 -0.12925987 0.14348324 -0.10476717 0.24302335 0.013051373
0.14685431 0.04669474 0.07919508 -0.050644033 -0.08909253 0.06418669 -0.11316597 0.11192938
0.07370656 -0.07415876 0.061245956 0.015862795 0.014378996 -0.03734425 0.045484796 -0.2726282
-0.09220237 0.057716258 0.14721185 0.054292757 0.13870332 -0.06861382 -0.28501314 -0.115470305
0.020473296 -0.13212335 -0.08500165 -0.098997824 0.096992336 -0.020250812 -0.02492783 0.010113441
-0.040408637 0.21282506 -0.00794043 -0.36630863 -0.046878975 -0.14992714 0.26296368 0.06423848
-0.03199089 -0.045317106 -0.01998847 -0.06296678 0.110649996 -0.12660566 -0.030001588 -0.012043406
-0.039450333 -0.021074308 -0.19470474 0.083658524 -0.09106829 0.031002114 -0.13427657 -0.17481054
-0.012201283 0.02094632 -0.09657168 0.113041006 0.44883195 0.13604616 0.073562846 -0.058377907
-0.048452772 -0.092214264 -0.11797082 -0.016750732 -0.14976814 0.015597144 0.0596169 -0.15570216
-0.0034328646 -0.15288724 -0.025310414 -0.032045793 -0.041590232 0.03860986 0.07721492 0.0756375
0.06108391 -0.1545565 -0.064563975 -0.13055967 -0.025138808 -0.29478157 0.0033631776 -0.070166074
-0.057637304 -0.1250841 -0.1025998 -0.15540951 -0.06645439 -0.2174521 -0.033537153 -0.20310298
-0.05686378 -0.07505396 0.0071003884 -0.06256401 0.024432573 -0.08275277 0.0044339225 -0.047544174
-0.009922267 -0.017975423 -0.17149939 -0.010262343 -0.103728466 0.037844498 0.03423838 -0.06491261
-0.014210448 -0.024146784 0.082331106 -0.1554986 -0.14385507 -0.08018195 -0.12142816 -0.15911034
-0.06129988 -0.13026357 0.12605307 0.12654689 0.09693444 -0.10492527 -0.1724794 0.008074076
0.16207987 0.15689124 -0.05930548 0.20938417 -0.10846226 -0.064643964 0.0065816063 0.0011559236
-0.031394906 0.06957002 0.014479877 -0.11193394 -0.11334621 -0.11960449 -0.23174074 -0.0017415786
-0.12618448 -0.16983281 -0.042733718 0.0506202 0.013245552 -0.052639227 -0.21227172 0.12220287
-0.07479691 -0.032199875 0.10838059 0.013066465 -0.14421183 -1.3132687 -0.05323275 -0.10448011
-0.10085205 0.12175903 -0.18191826 -0.16565022 -0.27875176 -0.29999453 -0.084834605 0.0060164644
-0.1622468 0.03093946 -0.061585676 -0.056521505 -0.09959533 0.14878319 -0.010812641 -0.11348055
-0.07544004 -0.0920407 0.012067111 -0.051486667 0.15336075 -0.17896524 -0.2757035 -0.029735059
-0.26372883 -0.3261796 -0.38283283 -0.26969272 0.28900108 -0.09181846 -0.3812326 0.043566808
-0.053175 -0.45306602 0.079270236 0.33062157 0.03828839 0.06444075 -0.27285564 -0.41261736
-0.07790947 -0.55897623 0.0908366 -0.113543496 -0.3790752 -0.12844574 -0.3452727 0.008866432
-0.057600446 0.51127326 -0.10101738 -0.22446227 -0.2159174 0.22940329 0.44093296 -0.104950696
-0.09594356 -0.8528565 0.29232535 -0.3070346 -0.26147714 -0.0804747 0.05537186 -0.32035267

fc5.bias f4 [32]
00000000: 0cb9 8ebe dd7b 1cbe 6130 133e 97c2 bbbe
00000010: bcba 99be 727a 1abd 50a6 2dbe 6045 57be
00000020: 2aa7 bfbe fbad 8ebd 91f4 223c 0e98 083e
00000030: d74e c8be b1f6 7abe f049 97be e87c 853c
00000040: 71f6 df3d a976 e6bc 046e 34be c4c7 8cbd
00000050: 4a3e e0bb 138e 34be 410e fcbd 969a b4be
00000060: 6dc4 fabd ce37 03be 3589 1dbe 0f87 08be
00000070: 2456 16be a6b9 f0bd 3b28 9abe cdad aebd
-0.27875555 -0.15281625 0.14373924 -0.36671898 -0.3002528 -0.03771443 -0.16957974 -0.21022558
-0.37432224 -0.06966778 0.0099460045 0.13339254 -0.3912265 -0.24508168 -0.29548597 0.016294912
0.10935677 -0.028132753 -0.17620093 -0.0687404 -0.006843363 -0.17632322 -0.12307406 -0.3527419
-0.122444965 -0.12814257 -0.15384372 -0.13332771 -0.14681298 -0.1175416 -0.30108818 -0.085292436
